…
[2025-02-12 13:44:56 vig_tiny] (main.py 476): INFO {"cfg": "configs/vig/vig-t.yaml", "opts": null, "batch_size": null, "num_workers": null, "data_path": "./IMGNet", "dataset": "imagenet", "zip": false, "cache_mode": "part", "pretrained": null, "resume": null, "accumulation_steps": null, "use_checkpoint": false, "repeated_aug": false, "disable_amp": false, "output": "./output", "tag": "20250212134454", "eval": false, "throughput": false, "fused_layernorm": false, "optim": null, "gpu": 0, "model_ema": true, "model_ema_decay": 0.9999, "model_ema_force_cpu": false, "memory_limit_rate": -1}
[2025-02-12 13:44:56 vig_tiny] (main.py 112): INFO Creating model:vig/vig_tiny
[2025-02-12 13:44:56 vig_tiny] (main.py 124): INFO ViG(
  (patch_embed): V2PatchEmbed(
    (proj): Sequential(
      (0): Conv2d(3, 96, kernel_size=(9, 9), stride=(8, 8), padding=(1, 1))
      (1): LayerNorm2d((96,), eps=1e-05, elementwise_affine=True)
      (2): SiLU()
      (3): Conv2d(96, 192, kernel_size=(3, 3), stride=(2, 2), padding=(1, 1))
      (4): LayerNorm2d((192,), eps=1e-05, elementwise_affine=True)
    )
  )
  (pos_drop): Dropout(p=0.0, inplace=False)
  (head): Linear(in_features=192, out_features=5, bias=True)
  (blocks): ModuleList(
    (0-11): 12 x GLABlock(
      (drop_path): Identity()
      (attn_norm): RMSNorm()
      (attn): GatedLinearAttention(
        (gate_fn): SiLU()
        (out_act): SiLU()
        (in_proj): Sequential(
          (0): Conv2d(192, 192, kernel_size=(3, 3), stride=(1, 1), padding=(1, 1), groups=192, bias=False)
          (1): SiLU()
        )
        (qkv_proj): Linear(in_features=192, out_features=384, bias=False)
        (gk_proj): Sequential(
          (0): Linear(in_features=192, out_features=16, bias=False)
          (1): Linear(in_features=16, out_features=192, bias=True)
        )
        (o_proj): Linear(in_features=192, out_features=192, bias=False)
        (g_norm): RMSNorm()
        (l_norm): RMSNorm()
        (g_proj): Linear(in_features=192, out_features=192, bias=True)
      )
      (mlp_norm): RMSNorm()
      (mlp): GLAMLP(
        (gate_proj): Linear(in_features=192, out_features=1024, bias=False)
        (down_proj): Linear(in_features=512, out_features=192, bias=False)
        (act_fn): SiLU()
      )
    )
  )
  (norm): RMSNorm()
  (gap): AdaptiveAvgPool2d(output_size=(1, 1))
)
[2025-02-12 13:44:56 vig_tiny] (main.py 126): INFO number of params: 5642501
[2025-02-12 13:44:56 vig_tiny] (main.py 127): INFO flops need to be calculated
[2025-02-12 13:44:56 vig_tiny] (optimizer.py 18): INFO ==============> building optimizer adamw....................
…
